2020G题非接触测量/openmv/trained.tflite (tflite, 56616 bytes, 21 tensors)

model_1/logits/Conv2D i1 [3, 1, 1, 32]
87 67 117 -72 -65 -3 -21 22
-11 46 37 -31 -33 -93 72 25
-67 69 90 113 -26 -14 44 -88
-107 127 -70 3 82 15 -20 -13
50 -44 -68 21 -9 127 -21 -6
120 -59 -4 -90 -64 105 35 -54
92 -44 -11 -95 -112 17 96 58
17 7 3 -12 -82 -52 -3 -41
-41 84 -83 74 89 -43 -39 123
98 42 127 -15 -104 -91 90 124
-87 -54 -8 -121 77 115 -66 -97
92 -72 -17 -125 10 -80 88 -22
00000000: 5743 75b8 bffd eb16 f52e 25e1 dfa3 4819
00000010: bd45 5a71 e6f2 2ca8 957f ba03 520f ecf3
00000020: 32d4 bc15 f77f ebfa 78c5 fca6 c069 23ca
00000030: 5cd4 f5a1 9011 603a 1107 03f4 aecc fdd7
00000040: d754 ad4a 59d5 d97b 622a 7ff1 98a5 5a7c
00000050: a9ca f887 4d73 be9f 5cb8 ef83 0ab0 58ea

model_1/head/Conv2D i1 [32, 1, 1, 96]
-41 -51 104 3 113 7 -91 -117
59 -90 -113 -13 53 6 -32 52
-46 -32 -60 -48 -75 -110 3 115
-112 11 79 -58 125 0 -25 -82
102 -63 -79 65 -98 -79 -110 26
80 -91 -109 104 56 -114 113 -23
27 -44 -36 104 -83 -48 -88 110
26 64 127 -116 -83 109 -49 42
11 16 70 91 58 90 82 -125
102 -99 65 84 -106 14 -64 30
55 18 93 -9 -62 -43 -92 106
29 118 -5 -114 11 78 30 11
-56 38 -68 3 -47 86 43 15
87 -99 -102 117 61 -29 30 63
115 -38 27 127 -47 -2 36 32
40 23 -37 112 16 11 107 -60
64 112 -9 33 54 68 -7 -61
-59 12 -17 -94 -30 44 -27 -50
-20 -85 103 66 14 91 -75 -46
21 94 68 78 -56 110 -63 -76
-54 42 82 47 114 37 15 14
-125 101 -51 49 91 -51 -38 67
-77 82 -58 -114 34 124 -73 -62
85 89 93 32 88 99 34 4
36 33 -51 87 -18 -62 76 83
-96 76 -40 127 78 -19 70 -100
-58 -32 48 42 -98 -17 108 13
-28 67 91 29 -70 65 69 80
-70 -26 -93 -104 -71 81 93 -32
-116 -78 9 -11 -85 103 -31 -78
87 30 76 -91 -24 52 12 8
-70 85 -65 25 -23 71 -41 62
00000000: d7cd 6803 7107 a58b 3ba6 8ff3 3506 e034
00000010: d2e0 c4d0 b592 0373 900b 4fc6 7d00 e7ae
00000020: 66c1 b141 9eb1 921a 50a5 9368 388e 71e9
00000030: 1bd4 dc68 add0 a86e 1a40 7f8c ad6d cf2a
00000040: 0b10 465b 3a5a 5283 669d 4154 960e c01e
00000050: 3712 5df7 c2d5 a46a 1d76 fb8e 0b4e 1e0b
00000060: c826 bc03 d156 2b0f 579d 9a75 3de3 1e3f
00000070: 73da 1b7f d1fe 2420 2817 db70 100b 6bc4
00000080: 4070 f721 3644 f9c3 c50c efa2 e22c e5ce
00000090: ecab 6742 0e5b b5d2 155e 444e c86e c1b4
000000a0: ca2a 522f 7225 0f0e 8365 cd31 5bcd da43
000000b0: b352 c68e 227c b7c2 5559 5d20 5863 2204
000000c0: 2421 cd57 eec2 4c53 a04c d87f 4eed 469c
000000d0: c6e0 302a 9eef 6c0d e443 5b1d ba41 4550
000000e0: bae6 a398 b951 5de0 8cb2 09f5 ab67 e1b2
000000f0: 571e 4ca5 e834 0c08 ba55 bf19 e947 d73e

model_1/block_6_expand/Conv2D i1 [96, 1, 1, 16]
-23 80 -6 -127 -40 -33 -29 -59
-22 16 -1 71 22 -57 -13 57
-39 27 -60 -2 -28 -26 23 -91
62 51 -58 17 -1 4 43 -127
-8 8 -40 45 34 14 -44 -51
127 -25 4 17 -7 97 -72 13
40 -61 11 -108 -1 -25 3 5
127 7 86 55 -14 55 18 123
-96 50 19 44 4 -15 0 44
4 12 21 -19 -127 -11 -18 23
-1 67 123 -2 28 85 -89 74
-65 71 -33 -42 35 -55 -127 29
33 -47 122 -127 48 6 -49 89
-79 -104 48 -42 -2 84 -20 86
34 117 -31 -50 84 7 10 -42
127 97 -21 25 31 -17 54 38
17 -94 7 -94 30 -58 13 -81
21 58 70 -14 15 127 86 66
7 -27 -2 127 38 -7 40 -58
-60 109 33 -19 -7 -59 -10 -10
-5 17 -52 -127 8 -4 -6 45
32 -30 17 -27 -12 -44 -11 31
14 15 13 -24 69 -39 81 -60
-78 31 4 30 4 127 -60 -20
61 -8 -106 -2 29 -56 35 29
27 65 -62 -34 -46 127 -14 20
-13 6 -21 12 3 -127 -2 20
6 -9 9 1 12 -12 8 9
26 -28 95 -25 53 7 -127 -83
-12 -46 33 24 8 -52 -21 -36
-94 15 -26 -58 8 0 127 50
-46 38 69 -37 14 75 73 8
00000000: e950 fa81 d8df e3c5 ea10 ff47 16c7 f339
00000010: d91b c4fe e4e6 17a5 3e33 c611 ff04 2b81
00000020: f808 d82d 220e d4cd 7fe7 0411 f961 b80d
00000030: 28c3 0b94 ffe7 0305 7f07 5637 f237 127b
00000040: a032 132c 04f1 002c 040c 15ed 81f5 ee17
00000050: ff43 7bfe 1c55 a74a bf47 dfd6 23c9 811d
00000060: 21d1 7a81 3006 cf59 b198 30d6 fe54 ec56
00000070: 2275 e1ce 5407 0ad6 7f61 eb19 1fef 3626
00000080: 11a2 07a2 1ec6 0daf 153a 46f2 0f7f 5642
00000090: 07e5 fe7f 26f9 28c6 c46d 21ed f9c5 f6f6
000000a0: fb11 cc81 08fc fa2d 20e2 11e5 f4d4 f51f
000000b0: 0e0f 0de8 45d9 51c4 b21f 041e 047f c4ec
000000c0: 3df8 96fe 1dc8 231d 1b41 c2de d27f f214
000000d0: f306 eb0c 0381 fe14 06f7 0901 0cf4 0809
000000e0: 1ae4 5fe7 3507 81ad f4d2 2118 08cc ebdc
000000f0: a20f e6c6 0800 7f32 d226 45db 0e4b 4908

model_1/block_5_project/Conv2D i1 [16, 1, 1, 96]
-21 -10 1 -36 14 -8 -42 1
17 0 -9 11 -3 -5 -29 9
0 8 -6 -5 11 -29 8 5
4 16 1 127 37 -33 45 -7
0 7 3 4 -8 15 -34 -7
-15 4 2 42 8 12 18 4
26 4 -5 13 16 -22 -11 80
2 6 -27 -38 -3 22 1 -23
-38 -69 -18 35 11 15 16 -15
-9 -36 4 -25 -26 16 -1 8
-10 -25 30 23 0 -6 -11 -92
5 -11 7 -2 47 -36 -35 -8
31 -66 -79 -64 127 -15 59 45
-19 -91 -64 -23 5 1 -67 45
-78 2 43 41 16 47 -14 -57
10 -10 -17 -76 40 -15 -61 44
-17 38 1 1 13 -14 8 16
-32 34 -50 -28 -41 91 6 6
21 -84 13 -46 -15 41 58 5
-61 -26 -30 -38 30 -25 3 -46
-95 109 -33 -27 -2 -20 -25 14
52 -114 -22 7 41 -58 40 0
4 -27 24 6 -48 40 -19 25
26 -35 -6 14 26 7 27 107
10 48 -80 -5 93 79 37 73
-6 -96 -8 -8 -3 -6 30 16
4 -19 -39 69 22 -14 72 20
42 18 1 -35 26 -11 40 -61
25 33 -20 35 -127 -83 18 35
1 -40 9 -15 26 -27 -5 68
-19 14 -22 -2 81 -5 -14 62
37 12 23 6 27 28 26 -19
00000000: ebf6 01dc 0ef8 d601 1100 f70b fdfb e309
00000010: 0008 fafb 0be3 0805 0410 017f 25df 2df9
00000020: 0007 0304 f80f def9 f104 022a 080c 1204
00000030: 1a04 fb0d 10ea f550 0206 e5da fd16 01e9
00000040: dabb ee23 0b0f 10f1 f7dc 04e7 e610 ff08
00000050: f6e7 1e17 00fa f5a4 05f5 07fe 2fdc ddf8
00000060: 1fbe b1c0 7ff1 3b2d eda5 c0e9 0501 bd2d
00000070: b202 2b29 102f f2c7 0af6 efb4 28f1 c32c
00000080: ef26 0101 0df2 0810 e022 cee4 d75b 0606
00000090: 15ac 0dd2 f129 3a05 c3e6 e2da 1ee7 03d2
000000a0: a16d dfe5 feec e70e 348e ea07 29c6 2800
000000b0: 04e5 1806 d028 ed19 1add fa0e 1a07 1b6b
000000c0: 0a30 b0fb 5d4f 2549 faa0 f8f8 fdfa 1e10
000000d0: 04ed d945 16f2 4814 2a12 01dd 1af5 28c3
000000e0: 1921 ec23 81ad 1223 01d8 09f1 1ae5 fb44
000000f0: ed0e eafe 51fb f23e 250c 1706 1b1c 1aed

model_1/block_5_depthwise_BN/FusedBatchNormV3;model_1/block_5_depthwise/depthwise;model_1/block_6_expand/Conv2D i1 [1, 3, 3, 96]
-45 -72 -10 127 21 71 75 -59
-15 -17 -15 -3 -29 1 37 1
-9 -43 26 21 18 -127 127 5
-85 7 50 -29 -122 -127 38 25
12 27 60 -18 -30 -11 30 -9
-13 27 -106 71 25 -69 37 45
-18 53 -25 19 3 -6 16 48
-90 -50 -61 -19 -11 -1 10 38
66 -25 74 13 -8 15 19 127
23 23 25 -1 -11 18 127 -7
-15 16 -28 20 126 21 -76 -17
0 -32 -15 -38 1 -26 -15 25
127 -127 75 106 -43 127 38 -118
69 5 -17 127 127 -97 -13 15
11 127 127 -113 127 -78 81 66
-127 -115 -66 -35 -55 47 -59 -19
-88 54 -127 -83 -43 -15 -54 60
-1 127 127 82 -51 -113 -112 -50
-16 -127 43 84 66 -31 45 82
-46 41 -79 -113 -44 -42 -61 67
72 -62 26 30 -80 31 -17 90
116 127 13 19 2 58 -34 52
63 127 127 -23 -9 75 -112 127
-121 -101 5 -127 -91 -127 -38 104
-73 -13 30 -83 15 -27 65 -9
79 -35 -28 19 -19 -4 -9 -13
-9 -16 7 -4 -23 -104 29 -1
-122 96 8 -55 115 51 -15 10
1 13 14 -29 -9 33 19 10
24 12 -118 65 18 -19 37 13
-15 11 -17 5 -11 1 -2 20
-65 6 -33 51 2 40 32 0
00000000: d3b8 f67f 1547 4bc5 f1ef f1fd e301 2501
00000010: f7d5 1a15 1281 7f05 ab07 32e3 8681 2619
00000020: 0c1b 3cee e2f5 1ef7 f31b 9647 19bb 252d
00000030: ee35 e713 03fa 1030 a6ce c3ed f5ff 0a26
00000040: 42e7 4a0d f80f 137f 1717 19ff f512 7ff9
00000050: f110 e414 7e15 b4ef 00e0 f1da 01e6 f119
00000060: 7f81 4b6a d57f 268a 4505 ef7f 7f9f f30f
00000070: 0b7f 7f8f 7fb2 5142 818d bedd c92f c5ed
00000080: a836 81ad d5f1 ca3c ff7f 7f52 cd8f 90ce
00000090: f081 2b54 42e1 2d52 d229 b18f d4d6 c343
000000a0: 48c2 1a1e b01f ef5a 747f 0d13 023a de34
000000b0: 3f7f 7fe9 f74b 907f 879b 0581 a581 da68
000000c0: b7f3 1ead 0fe5 41f7 4fdd e413 edfc f7f3
000000d0: f7f0 07fc e998 1dff 8660 08c9 7333 f10a
000000e0: 010d 0ee3 f721 130a 180c 8a41 12ed 250d
000000f0: f10b ef05 f501 fe14 bf06 df33 0228 2000

model_1/block_5_expand/Conv2D i1 [96, 1, 1, 16]
-1 65 -21 81 26 36 13 -15
30 44 -56 100 0 -119 41 -127
26 53 -7 -25 32 -37 127 -114
-2 87 -18 -24 0 -54 28 17
-127 35 -29 -12 -1 2 55 80
-26 64 111 -16 -68 19 38 -58
-68 71 39 53 -59 54 81 114
13 78 -127 17 51 -73 -74 -53
10 -7 39 61 -22 60 -4 47
1 -21 -2 -8 26 -6 -127 -27
-15 -31 52 -27 5 -21 -8 20
-71 92 -19 -127 -19 17 -50 -21
21 2 36 -8 45 56 -71 -66
-14 -3 41 -10 127 -30 -21 -38
24 10 127 -11 -18 -32 5 -6
-82 29 -77 -38 12 -1 32 -14
15 26 80 60 -47 85 17 44
34 3 6 -95 -37 2 -127 -71
34 -115 49 39 12 -27 7 19
127 9 76 7 -28 8 -95 -25
-37 -98 -8 -31 -119 -3 1 53
99 127 55 -28 -32 57 98 3
36 -28 6 -85 10 -25 -115 -127
-56 44 -9 -34 34 -19 35 -71
-26 5 12 -38 -41 -31 -94 -12
-47 -78 -23 13 33 127 86 56
-47 -96 -83 39 -8 -77 15 -16
60 25 -22 -10 34 28 127 34
6 -52 46 20 19 25 17 127
18 58 2 -32 20 42 -50 118
24 -36 7 65 17 -1 99 3
5 -127 13 -33 2 -20 -11 -39
00000000: ff41 eb51 1a24 0df1 1e2c c864 0089 2981
00000010: 1a35 f9e7 20db 7f8e fe57 eee8 00ca 1c11
00000020: 8123 e3f4 ff02 3750 e640 6ff0 bc13 26c6
00000030: bc47 2735 c536 5172 0d4e 8111 33b7 b6cb
00000040: 0af9 273d ea3c fc2f 01eb fef8 1afa 81e5
00000050: f1e1 34e5 05eb f814 b95c ed81 ed11 ceeb
00000060: 1502 24f8 2d38 b9be f2fd 29f6 7fe2 ebda
00000070: 180a 7ff5 eee0 05fa ae1d b3da 0cff 20f2
00000080: 0f1a 503c d155 112c 2203 06a1 db02 81b9
00000090: 228d 3127 0ce5 0713 7f09 4c07 e408 a1e7
000000a0: db9e f8e1 89fd 0135 637f 37e4 e039 6203
000000b0: 24e4 06ab 0ae7 8d81 c82c f7de 22ed 23b9
000000c0: e605 0cda d7e1 a2f4 d1b2 e90d 217f 5638
000000d0: d1a0 ad27 f8b3 0ff0 3c19 eaf6 221c 7f22
000000e0: 06cc 2e14 1319 117f 123a 02e0 142a ce76
000000f0: 18dc 0741 11ff 6303 0581 0ddf 02ec f5d9

model_1/block_4_project/Conv2D i1 [16, 1, 1, 96]
0 20 -13 22 44 72 -29 -29
41 7 9 4 -8 17 26 67
5 -10 -7 -10 95 -53 5 -14
-25 -36 -44 -96 -4 1 43 52
116 -1 1 -6 6 -24 -24 13
-37 17 19 -28 3 -28 -9 23
-16 17 1 -7 -32 -13 6 -7
37 25 -17 -21 -59 33 -9 -9
9 6 57 5 9 7 -3 -23
-67 -2 0 4 -7 -86 5 -19
41 -22 -57 -42 25 -16 9 29
-11 1 22 -29 26 18 -12 127
74 -95 41 90 -8 -67 -14 -53
-32 -88 -13 22 4 -66 -32 -62
-82 -11 28 28 -32 -107 -48 27
127 -68 -73 23 -26 105 -22 61
12 18 -37 25 -24 -19 45 -22
-6 -74 76 -33 -55 19 62 -5
33 28 5 -72 72 -75 34 -22
21 25 -13 -103 42 -65 25 -53
0 -91 38 52 44 53 -43 5
-108 40 -17 72 41 103 19 -28
46 0 -77 33 -91 61 5 69
-44 5 25 19 13 -51 41 -1
28 13 17 -29 1 -3 -5 41
66 -16 18 68 3 16 45 10
-12 -9 6 -3 -14 -60 11 -47
1 -11 -26 20 -14 16 114 -62
21 -67 -29 52 19 127 -35 -23
7 -22 -1 36 -39 -52 -52 26
30 23 -29 -27 23 3 -3 -31
-24 6 -6 23 4 1 70 87
00000000: 0014 f316 2c48 e3e3 2907 0904 f811 1a43
00000010: 05f6 f9f6 5fcb 05f2 e7dc d4a0 fc01 2b34
00000020: 74ff 01fa 06e8 e80d db11 13e4 03e4 f717
00000030: f011 01f9 e0f3 06f9 2519 efeb c521 f7f7
00000040: 0906 3905 0907 fde9 bdfe 0004 f9aa 05ed
00000050: 29ea c7d6 19f0 091d f501 16e3 1a12 f47f
00000060: 4aa1 295a f8bd f2cb e0a8 f316 04be e0c2
00000070: aef5 1c1c e095 d01b 7fbc b717 e669 ea3d
00000080: 0c12 db19 e8ed 2dea fab6 4cdf c913 3efb
00000090: 211c 05b8 48b5 22ea 1519 f399 2abf 19cb
000000a0: 00a5 2634 2c35 d505 9428 ef48 2967 13e4
000000b0: 2e00 b321 a53d 0545 d405 1913 0dcd 29ff
000000c0: 1c0d 11e3 01fd fb29 42f0 1244 0310 2d0a
000000d0: f4f7 06fd f2c4 0bd1 01f5 e614 f210 72c2
000000e0: 15bd e334 137f dde9 07ea ff24 d9cc cc1a
000000f0: 1e17 e3e5 1703 fde1 e806 fa17 0401 4657

model_1/block_4_depthwise_BN/FusedBatchNormV3;model_1/block_4_depthwise/depthwise;model_1/block_6_expand/Conv2D i1 [1, 3, 3, 96]
-17 7 -21 104 -17 23 -62 -53
17 -6 100 -10 4 -7 -5 53
4 16 -33 3 75 3 32 -34
2 17 43 48 21 12 24 47
-7 28 9 -15 4 48 -58 -26
21 8 27 17 -85 -57 25 -5
-11 -21 -8 -6 49 5 -9 2
-3 -36 28 -31 27 -1 127 26
-13 -10 12 -53 65 35 2 -8
78 -32 68 4 17 -127 29 63
0 14 127 -14 38 29 -28 -19
34 -6 -14 82 1 19 -2 12
-49 13 -9 9 52 -8 -10 -127
39 14 -127 -5 -17 -12 4 91
17 -30 -14 -16 77 -96 127 25
-61 -32 -105 -15 27 35 -49 18
117 12 -14 -1 -24 127 -63 -127
9 -19 -30 15 46 -127 127 -44
-76 49 49 7 38 -64 30 57
36 42 -102 83 127 34 3 -21
42 -37 -97 -2 36 -31 -20 45
-50 -48 104 -4 -29 -60 -33 63
-67 60 -15 8 -10 48 54 -41
-28 54 -13 73 -127 -31 23 -127
1 -4 -24 -75 8 18 38 22
-3 -2 4 61 0 -13 -11 5
-13 17 -17 16 6 25 23 -33
1 -31 9 13 -6 4 46 -78
43 17 8 -23 11 3 -32 -21
8 2 -16 8 22 -33 21 1
6 -9 5 -5 4 6 -6 9
-8 45 7 -3 11 -19 3 -18
00000000: ef07 eb68 ef17 c2cb 11fa 64f6 04f9 fb35
00000010: 0410 df03 4b03 20de 0211 2b30 150c 182f
00000020: f91c 09f1 0430 c6e6 1508 1b11 abc7 19fb
00000030: f5eb f8fa 3105 f702 fddc 1ce1 1bff 7f1a
00000040: f3f6 0ccb 4123 02f8 4ee0 4404 1181 1d3f
00000050: 000e 7ff2 261d e4ed 22fa f252 0113 fe0c
00000060: cf0d f709 34f8 f681 270e 81fb eff4 045b
00000070: 11e2 f2f0 4da0 7f19 c3e0 97f1 1b23 cf12
00000080: 750c f2ff e87f c181 09ed e20f 2e81 7fd4
00000090: b431 3107 26c0 1e39 242a 9a53 7f22 03eb
000000a0: 2adb 9ffe 24e1 ec2d ced0 68fc e3c4 df3f
000000b0: bd3c f108 f630 36d7 e436 f349 81e1 1781
000000c0: 01fc e8b5 0812 2616 fdfe 043d 00f3 f505
000000d0: f311 ef10 0619 17df 01e1 090d fa04 2eb2
000000e0: 2b11 08e9 0b03 e0eb 0802 f008 16df 1501
000000f0: 06f7 05fb 0406 fa09 f82d 07fd 0bed 03ee

model_1/block_4_expand/Conv2D i1 [96, 1, 1, 16]
36 -32 127 103 76 -28 16 -35
107 -27 -50 -61 22 75 -44 -87
33 70 -5 3 89 0 8 31
55 72 -29 127 5 -21 85 -93
20 -45 -7 -9 -54 33 -45 81
-78 -78 0 80 -8 -127 72 -82
127 118 0 39 -122 -20 -59 -21
1 3 101 -63 -51 98 -54 -31
-1 -10 23 14 -22 29 -23 45
-62 -42 -9 2 -5 -127 20 -4
127 -44 -23 -3 -9 -117 -28 13
-7 6 -112 -9 17 -5 0 30
-127 -77 -9 90 -55 -5 -44 31
-109 -76 -62 -37 25 67 -9 107
-10 7 -67 41 45 -127 -30 35
5 -35 15 -3 -6 22 -34 10
28 -50 -6 -7 7 30 -51 -62
-8 13 -67 9 -127 1 2 18
30 -46 68 124 8 30 -4 -78
127 -95 14 -19 -7 59 -64 22
-127 -82 4 -43 97 42 38 65
93 -73 -98 26 93 -98 -120 66
36 -16 -127 24 58 32 -22 46
-12 -35 -12 -1 -1 24 -49 -1
104 -65 4 -4 -4 -56 -73 -36
40 -11 -127 -24 -64 -23 8 54
53 -76 9 -70 110 5 -116 -127
51 -67 5 22 30 -14 26 10
-61 36 -88 -41 85 -127 71 -53
67 55 -15 -98 27 127 -22 21
20 -7 58 37 48 -36 -41 -18
22 -62 -59 -9 -127 -45 -15 46
00000000: 24e0 7f67 4ce4 10dd 6be5 cec3 164b d4a9
00000010: 2146 fb03 5900 081f 3748 e37f 05eb 55a3
00000020: 14d3 f9f7 ca21 d351 b2b2 0050 f881 48ae
00000030: 7f76 0027 86ec c5eb 0103 65c1 cd62 cae1
00000040: fff6 170e ea1d e92d c2d6 f702 fb81 14fc
00000050: 7fd4 e9fd f78b e40d f906 90f7 11fb 001e
00000060: 81b3 f75a c9fb d41f 93b4 c2db 1943 f76b
00000070: f607 bd29 2d81 e223 05dd 0ffd fa16 de0a
00000080: 1cce faf9 071e cdc2 f80d bd09 8101 0212
00000090: 1ed2 447c 081e fcb2 7fa1 0eed f93b c016
000000a0: 81ae 04d5 612a 2641 5db7 9e1a 5d9e 8842
000000b0: 24f0 8118 3a20 ea2e f4dd f4ff ff18 cfff
000000c0: 68bf 04fc fcc8 b7dc 28f5 81e8 c0e9 0836
000000d0: 35b4 09ba 6e05 8c81 33bd 0516 1ef2 1a0a
000000e0: c324 a8d7 5581 47cb 4337 f19e 1b7f ea15
000000f0: 14f9 3a25 30dc d7ee 16c2 c5f7 81d3 f12e

model_1/block_3_project/Conv2D i1 [16, 1, 1, 48]
-18 -2 -20 10 26 0 1 106
-50 17 44 -4 20 -13 -13 14
14 -14 -7 -5 66 -8 20 127
-16 87 -3 -14 23 -17 23 -26
-16 54 18 -49 15 44 20 -10
-104 -24 17 41 32 28 -120 -51
-40 -10 24 17 -33 11 1 60
-53 -34 8 -42 -23 -15 -1 -1
-24 119 -9 19 10 7 -26 -14
27 -41 16 25 -29 -86 -38 20
-21 -2 35 -4 -1 -44 4 17
-17 -30 127 10 8 -1 25 -14
-18 -9 -13 -37 -1 -66 6 -23
0 10 13 24 16 13 -14 5
-6 -18 -23 -12 -4 0 -1 -127
-11 71 -16 2 2 -21 -2 -4
-9 52 11 0 23 13 24 2
-41 1 -16 -4 2 -9 13 9
-8 32 -1 -31 -2 2 2 -5
-20 -2 0 37 -127 8 -2 -4
1 6 -19 -4 -29 8 7 14
-7 -12 3 24 -7 15 4 15
1 0 15 20 -10 27 41 6
9 5 22 -28 10 -6 4 20
35 -34 7 9 19 29 25 -24
-32 3 -12 -18 1 13 4 15
24 -6 -79 3 -2 14 14 71
1 -25 8 49 8 -77 20 6
13 -34 30 -127 11 35 -1 20
-20 18 8 -24 -11 -19 8 4
31 -1 -21 57 2 -7 6 22
4 -6 38 7 0 50 2 0
00000000: eefe ec0a 1a00 016a ce11 2cfc 14f3 f30e
00000010: 0ef2 f9fb 42f8 147f f057 fdf2 17ef 17e6
00000020: f036 12cf 0f2c 14f6 98e8 1129 201c 88cd
00000030: d8f6 1811 df0b 013c cbde 08d6 e9f1 ffff
00000040: e877 f713 0a07 e6f2 1bd7 1019 e3aa da14
00000050: ebfe 23fc ffd4 0411 efe2 7f0a 08ff 19f2
00000060: eef7 f3db ffbe 06e9 000a 0d18 100d f205
00000070: faee e9f4 fc00 ff81 f547 f002 02eb fefc
00000080: f734 0b00 170d 1802 d701 f0fc 02f7 0d09
00000090: f820 ffe1 fe02 02fb ecfe 0025 8108 fefc
000000a0: 0106 edfc e308 070e f9f4 0318 f90f 040f
000000b0: 0100 0f14 f61b 2906 0905 16e4 0afa 0414
000000c0: 23de 0709 131d 19e8 e003 f4ee 010d 040f
000000d0: 18fa b103 fe0e 0e47 01e7 0831 08b3 1406
000000e0: 0dde 1e81 0b23 ff14 ec12 08e8 f5ed 0804
000000f0: 1fff eb39 02f9 0616 04fa 2607 0032 0200

model_1/block_3_depthwise_BN/FusedBatchNormV3;model_1/block_3_depthwise/depthwise i1 [1, 3, 3, 48]
69 -91 97 70 53 -34 107 -64
60 -88 -80 47 51 -41 -71 -89
102 78 49 78 66 -73 -83 51
-32 -40 -64 -64 -67 61 -63 -114
-14 41 68 64 -64 53 -50 -23
51 -74 57 62 -94 11 74 -34
80 -96 127 86 -77 -68 -57 -85
97 -102 -63 73 79 -107 -95 91
-38 96 83 127 85 -115 52 72
-52 -77 -68 -80 56 79 -31 -127
-86 79 81 83 -82 83 -82 -16
76 -94 82 88 -75 -127 93 -104
34 -45 70 37 18 -41 -48 -39
42 -31 6 34 29 -77 -55 -2
-54 36 34 69 34 -54 31 25
-27 -45 -43 -22 31 31 88 -89
-84 44 35 34 -29 39 -37 -11
40 -40 34 42 -6 -9 36 -73
92 -111 -40 94 55 -82 127 -89
87 -113 -72 82 84 -109 -13 -127
127 108 75 -39 84 108 -127 73
73 -75 -93 -98 -127 86 -70 -9
-88 70 106 95 -84 79 -80 89
84 -101 87 90 -88 107 94 -92
127 -127 -64 127 -127 -127 -91 -127
127 -127 -127 127 127 -127 -22 96
-66 127 127 -51 127 127 69 127
127 -127 -127 -127 54 127 -29 15
-127 127 127 127 -127 127 -127 127
127 -127 127 127 -127 -11 127 -127
63 -77 -32 65 37 -62 -49 -62
56 -42 -61 58 48 -54 -17 10
00000000: 45a5 6146 35de 6bc0 3ca8 b02f 33d7 b9a7
00000010: 664e 314e 42b7 ad33 e0d8 c0c0 bd3d c18e
00000020: f229 4440 c035 cee9 33b6 393e a20b 4ade
00000030: 50a0 7f56 b3bc c7ab 619a c149 4f95 a15b
00000040: da60 537f 558d 3448 ccb3 bcb0 384f e181
00000050: aa4f 5153 ae53 aef0 4ca2 5258 b581 5d98
00000060: 22d3 4625 12d7 d0d9 2ae1 0622 1db3 c9fe
00000070: ca24 2245 22ca 1f19 e5d3 d5ea 1f1f 58a7
00000080: ac2c 2322 e327 dbf5 28d8 222a faf7 24b7
00000090: 5c91 d85e 37ae 7fa7 578f b852 5493 f381
000000a0: 7f6c 4bd9 546c 8149 49b5 a39e 8156 baf7
000000b0: a846 6a5f ac4f b059 549b 575a a86b 5ea4
000000c0: 7f81 c07f 8181 a581 7f81 817f 7f81 ea60
000000d0: be7f 7fcd 7f7f 457f 7f81 8181 367f e30f
000000e0: 817f 7f7f 817f 817f 7f81 7f7f 81f5 7f81
000000f0: 3fb3 e041 25c2 cfc2 38d6 c33a 30ca ef0a

model_1/block_3_expand/Conv2D i1 [48, 1, 1, 8]
-127 -2 -4 75 -35 41 23 -31
40 84 52 21 7 -35 116 127
-32 1 1 3 -127 -15 17 1
99 -6 -16 -127 -122 21 30 -17
-127 40 -11 -16 69 -5 36 16
-108 -32 24 -9 -127 8 13 90
-18 -127 25 -21 16 3 0 35
-67 -1 5 96 127 -33 -32 4
69 3 -1 -127 2 -21 -43 -31
-1 -127 -7 -8 -2 88 -55 79
-99 -5 -2 27 -127 70 68 -13
108 8 40 11 -55 -48 -35 -127
0 13 39 -9 10 -72 127 62
70 -23 -2 -18 121 127 115 -47
127 62 -9 11 -101 -21 -26 -27
-16 -127 20 -14 7 7 2 30
-56 -12 3 -1 -127 1 17 6
-22 100 -116 6 7 -127 111 -84
127 -31 -46 11 -65 28 14 104
127 -48 -12 -3 39 -3 36 10
127 21 -13 117 0 39 5 -59
7 32 -64 4 -29 95 -127 -83
-127 27 36 -9 -39 4 -49 -28
-37 -53 4 23 -127 61 75 -18
127 -6 -9 -12 -82 -9 -3 7
26 -14 -2 -27 127 54 49 -36
3 -97 8 -38 7 -127 75 -54
-17 -127 27 -15 -2 -53 30 -9
-106 38 -22 17 -9 -32 127 95
-14 45 15 4 -1 41 -102 -127
127 -31 -1 0 -88 6 -53 -25
-10 -28 67 -21 11 -113 127 68
00000000: 81fe fc4b dd29 17e1 2854 3415 07dd 747f
00000010: e001 0103 81f1 1101 63fa f081 8615 1eef
00000020: 8128 f5f0 45fb 2410 94e0 18f7 8108 0d5a
00000030: ee81 19eb 1003 0023 bdff 0560 7fdf e004
00000040: 4503 ff81 02eb d5e1 ff81 f9f8 fe58 c94f
00000050: 9dfb fe1b 8146 44f3 6c08 280b c9d0 dd81
00000060: 000d 27f7 0ab8 7f3e 46e9 feee 797f 73d1
00000070: 7f3e f70b 9beb e6e5 f081 14f2 0707 021e
00000080: c8f4 03ff 8101 1106 ea64 8c06 0781 6fac
00000090: 7fe1 d20b bf1c 0e68 7fd0 f4fd 27fd 240a
000000a0: 7f15 f375 0027 05c5 0720 c004 e35f 81ad
000000b0: 811b 24f7 d904 cfe4 dbcb 0417 813d 4bee
000000c0: 7ffa f7f4 aef7 fd07 1af2 fee5 7f36 31dc
000000d0: 039f 08da 0781 4bca ef81 1bf1 fecb 1ef7
000000e0: 9626 ea11 f7e0 7f5f f22d 0f04 ff29 9a81
000000f0: 7fe1 ff00 a806 cbe7 f6e4 43eb 0b8f 7f44

model_1/block_2_project/Conv2D i1 [8, 1, 1, 48]
-56 -10 -31 12 0 -19 2 6
-114 127 -38 110 119 3 68 -14
-5 -34 3 6 -7 -7 -23 -36
18 -95 10 64 -7 7 14 -30
-8 -74 104 23 -4 -4 -2 -11
114 -6 41 -26 -34 24 -17 -20
-4 36 127 8 -4 -21 3 -80
31 1 20 9 -17 6 -3 -118
10 -59 7 8 -27 37 26 -37
-19 -11 15 -1 12 -5 15 3
-2 14 15 10 -15 -36 67 -61
14 40 -8 22 -12 10 24 -1
3 -51 16 -45 32 25 -8 -27
5 1 -4 16 -13 57 7 1
-40 127 -23 -37 -17 21 -41 -8
120 1 2 -5 -29 -9 2 -43
-8 -17 2 11 -11 -3 -15 10
15 -22 -17 -2 2 24 -27 -41
2 -90 -4 6 3 -8 -11 -3
-9 -12 20 20 12 -8 50 2
-6 -19 3 23 -7 19 -25 1
7 53 3 8 -6 3 127 -1
11 7 -2 -2 -21 -15 -10 11
-7 9 -10 27 -6 -1 -3 33
-99 9 2 1 0 -35 1 9
43 -40 21 -20 -30 0 -11 -7
6 8 -2 26 11 -30 15 5
-6 44 5 107 -1 0 -7 -29
-3 -127 -33 9 4 -3 3 5
-54 -9 -12 16 -58 6 4 8
-23 24 19 6 -48 12 1 45
22 8 10 10 -8 -45 11 35
00000000: c8f6 e10c 00ed 0206 8e7f da6e 7703 44f2
00000010: fbde 0306 f9f9 e9dc 12a1 0a40 f907 0ee2
00000020: f8b6 6817 fcfc fef5 72fa 29e6 de18 efec
00000030: fc24 7f08 fceb 03b0 1f01 1409 ef06 fd8a
00000040: 0ac5 0708 e525 1adb edf5 0fff 0cfb 0f03
00000050: fe0e 0f0a f1dc 43c3 0e28 f816 f40a 18ff
00000060: 03cd 10d3 2019 f8e5 0501 fc10 f339 0701
00000070: d87f e9db ef15 d7f8 7801 02fb e3f7 02d5
00000080: f8ef 020b f5fd f10a 0fea effe 0218 e5d7
00000090: 02a6 fc06 03f8 f5fd f7f4 1414 0cf8 3202
000000a0: faed 0317 f913 e701 0735 0308 fa03 7fff
000000b0: 0b07 fefe ebf1 f60b f909 f61b faff fd21
000000c0: 9d09 0201 00dd 0109 2bd8 15ec e200 f5f9
000000d0: 0608 fe1a 0be2 0f05 fa2c 056b ff00 f9e3
000000e0: fd81 df09 04fd 0305 caf7 f410 c606 0408
000000f0: e918 1306 d00c 012d 1608 0a0a f8d3 0b23

model_1/block_2_depthwise_BN/FusedBatchNormV3;model_1/block_2_depthwise/depthwise;model_1/block_3_depthwise/depthwise i1 [1, 3, 3, 48]
4 -3 20 109 4 81 -1 28
16 8 9 8 -9 -8 -45 9
-2 8 -23 -114 -6 -22 127 -10
-2 6 -5 9 -5 5 16 99
20 28 38 -28 2 34 -2 2
17 -67 -9 -9 17 3 -7 -10
127 10 15 -127 28 86 11 11
125 127 7 44 -51 -24 6 8
127 -56 -60 -57 -101 25 -109 14
17 70 -32 -83 23 21 10 -124
5 -61 127 9 -39 -47 -5 115
-79 -97 -30 2 -34 -8 -127 23
-32 -3 7 15 -1 64 4 18
28 9 -14 32 -14 -3 16 3
-103 29 -3 77 -31 -11 -18 -6
-4 -59 -3 29 -16 5 4 -22
7 -23 17 -19 0 47 42 -12
50 38 -16 11 -43 3 -2 -6
126 7 1 -98 14 -27 35 -16
9 9 -13 54 -6 -1 18 -33
0 -50 -60 -86 10 -73 -124 -18
5 98 -15 -127 -8 33 12 -109
17 -53 -2 127 -3 58 -42 41
-62 -127 39 -89 -45 -14 -12 -5
27 -127 -127 115 -127 -127 -127 -127
-127 -96 127 -127 127 127 35 -127
-83 127 127 -106 127 127 112 127
127 -127 -127 28 -127 -127 94 127
-127 127 -29 -41 127 -127 127 127
127 -80 127 127 127 -121 102 107
54 5 49 -13 5 -61 44 19
-23 15 -106 -8 0 -40 127 4
00000000: 04fd 146d 0451 ff1c 1008 0908 f7f8 d309
00000010: fe08 e98e faea 7ff6 fe06 fb09 fb05 1063
00000020: 141c 26e4 0222 fe02 11bd f7f7 1103 f9f6
00000030: 7f0a 0f81 1c56 0b0b 7d7f 072c cde8 0608
00000040: 7fc8 c4c7 9b19 930e 1146 e0ad 1715 0a84
00000050: 05c3 7f09 d9d1 fb73 b19f e202 def8 8117
00000060: e0fd 070f ff40 0412 1c09 f220 f2fd 1003
00000070: 991d fd4d e1f5 eefa fcc5 fd1d f005 04ea
00000080: 07e9 11ed 002f 2af4 3226 f00b d503 fefa
00000090: 7e07 019e 0ee5 23f0 0909 f336 faff 12df
000000a0: 00ce c4aa 0ab7 84ee 0562 f181 f821 0c93
000000b0: 11cb fe7f fd3a d629 c281 27a7 d3f2 f4fb
000000c0: 1b81 8173 8181 8181 81a0 7f81 7f7f 2381
000000d0: ad7f 7f96 7f7f 707f 7f81 811c 8181 5e7f
000000e0: 817f e3d7 7f81 7f7f 7fb0 7f7f 7f87 666b
000000f0: 3605 31f3 05c3 2c13 e90f 96f8 00d8 7f04

model_1/block_2_expand/Conv2D i1 [48, 1, 1, 8]
69 33 -4 -7 127 27 -42 -29
-7 1 0 127 8 -7 9 12
27 -127 -19 39 -9 -64 72 12
127 -28 -10 16 -13 -31 30 3
7 -50 127 -15 -9 -43 17 -90
58 3 5 -3 127 7 -3 0
-14 87 -8 127 24 44 -65 -46
-4 127 -5 2 -2 -13 13 -3
127 50 -3 4 -54 -24 -5 -35
-127 15 4 19 60 12 -11 -4
-69 -9 17 127 37 32 -21 -1
-127 2 5 -64 30 9 -16 -45
127 20 5 18 -45 -9 8 -41
-10 80 -127 -6 2 98 -75 72
-51 -23 -6 127 22 3 -7 -23
-3 127 2 -4 -1 -16 11 -47
-9 -127 -21 5 -10 -113 117 -30
21 127 1 -12 8 79 -84 -20
-6 46 -127 1 5 54 -35 62
-70 12 0 -2 -127 6 22 25
-127 -21 2 -1 74 -25 36 1
-61 0 -3 -2 -127 -2 14 4
-127 -24 -1 -6 76 -20 30 50
-19 -23 -7 -6 -6 82 -127 -90
-7 41 -127 3 6 49 -21 72
97 -44 5 127 -78 -14 12 -43
6 -18 -6 3 -11 126 127 -33
74 -4 -5 11 127 31 44 -20
-5 127 -71 1 3 80 -28 124
-6 17 -6 -6 1 90 -127 -92
1 -4 0 -127 -6 -2 -3 -14
-65 8 5 4 -127 6 16 4
00000000: 4521 fcf9 7f1b d6e3 f901 007f 08f9 090c
00000010: 1b81 ed27 f7c0 480c 7fe4 f610 f3e1 1e03
00000020: 07ce 7ff1 f7d5 11a6 3a03 05fd 7f07 fd00
00000030: f257 f87f 182c bfd2 fc7f fb02 fef3 0dfd
00000040: 7f32 fd04 cae8 fbdd 810f 0413 3c0c f5fc
00000050: bbf7 117f 2520 ebff 8102 05c0 1e09 f0d3
00000060: 7f14 0512 d3f7 08d7 f650 81fa 0262 b548
00000070: cde9 fa7f 1603 f9e9 fd7f 02fc fff0 0bd1
00000080: f781 eb05 f68f 75e2 157f 01f4 084f acec
00000090: fa2e 8101 0536 dd3e ba0c 00fe 8106 1619
000000a0: 81eb 02ff 4ae7 2401 c300 fdfe 81fe 0e04
000000b0: 81e8 fffa 4cec 1e32 ede9 f9fa fa52 81a6
000000c0: f929 8103 0631 eb48 61d4 057f b2f2 0cd5
000000d0: 06ee fa03 f57e 7fdf 4afc fb0b 7f1f 2cec
000000e0: fb7f b901 0350 e47c fa11 fafa 015a 81a4
000000f0: 01fc 0081 fafe fdf2 bf08 0504 8106 1004

model_1/block_1_project/Conv2D i1 [8, 1, 1, 48]
-12 1 8 -91 9 25 6 6
3 7 3 -6 95 0 0 5
0 -8 -7 0 75 -3 -1 3
29 37 12 13 4 5 1 -127
11 8 -1 0 -29 1 -14 31
7 -27 -7 3 3 -3 5 4
-38 -9 -4 -7 43 25 -28 74
22 4 -32 -23 12 0 16 35
0 38 17 -48 0 20 127 22
-28 -4 55 3 23 -3 16 -12
15 -9 -9 -22 7 -56 9 5
-7 -6 -78 -5 -33 7 -48 -96
-58 14 -1 10 42 -9 29 23
-11 56 6 -6 1 0 4 50
0 13 -127 23 -2 14 3 -16
-33 1 35 3 11 32 21 1
6 -7 -10 -11 13 7 4 2
38 -7 -30 -1 22 -55 25 13
3 2 -2 9 -5 31 0 -1
65 20 -2 -3 26 0 -31 -9
0 2 -11 1 -4 0 8 -19
-12 -6 -9 -4 -10 -5 0 -8
-48 44 -54 -3 7 0 5 -127
-1 3 2 -52 -2 -1 -2 7
2 -2 81 34 2 -20 0 -3
3 -4 -1 -8 -82 0 -12 3
0 8 6 -1 65 3 1 -4
-16 33 -6 47 -7 -2 -3 97
4 5 -1 -2 15 -14 -9 -18
-5 -127 5 2 1 -3 0 1
-6 43 3 -9 1 44 24 13
-19 30 5 52 24 0 -127 -3
00000000: f401 08a5 0919 0606 0307 03fa 5f00 0005
00000010: 00f8 f900 4bfd ff03 1d25 0c0d 0405 0181
00000020: 0b08 ff00 e301 f21f 07e5 f903 03fd 0504
00000030: daf7 fcf9 2b19 e44a 1604 e0e9 0c00 1023
00000040: 0026 11d0 0014 7f16 e4fc 3703 17fd 10f4
00000050: 0ff7 f7ea 07c8 0905 f9fa b2fb df07 d0a0
00000060: c60e ff0a 2af7 1d17 f538 06fa 0100 0432
00000070: 000d 8117 fe0e 03f0 df01 2303 0b20 1501
00000080: 06f9 f6f5 0d07 0402 26f9 e2ff 16c9 190d
00000090: 0302 fe09 fb1f 00ff 4114 fefd 1a00 e1f7
000000a0: 0002 f501 fc00 08ed f4fa f7fc f6fb 00f8
000000b0: d02c cafd 0700 0581 ff03 02cc feff fe07
000000c0: 02fe 5122 02ec 00fd 03fc fff8 ae00 f403
000000d0: 0008 06ff 4103 01fc f021 fa2f f9fe fd61
000000e0: 0405 fffe 0ff2 f7ee fb81 0502 01fd 0001
000000f0: fa2b 03f7 012c 180d ed1e 0534 1800 81fd

model_1/block_1_depthwise_BN/FusedBatchNormV3;model_1/block_1_depthwise/depthwise;model_1/block_3_depthwise/depthwise i1 [1, 3, 3, 48]
-43 -22 -7 -17 7 -39 -79 -67
-27 -51 8 65 34 -71 114 -42
-113 -83 37 -7 -2 -70 -111 -79
-35 -124 -64 -19 71 15 95 26
-127 -89 -7 54 19 48 -127 78
-77 -14 104 -108 -2 -35 -87 107
75 11 -28 -29 57 -127 -127 -81
61 -76 -115 108 37 -82 -1 62
-52 -111 59 7 10 -112 -127 -70
-5 -127 -121 -39 -54 21 -56 54
29 -127 64 84 13 73 -92 127
-127 6 124 -127 2 -23 -127 94
-32 43 6 -5 -64 -108 -58 -18
87 -8 -127 38 8 -71 -100 -11
-127 -25 27 12 -16 -74 -35 -24
-11 -30 -57 -12 -9 18 -24 9
107 -86 70 31 14 36 -4 16
-78 3 7 -79 -17 5 -55 15
-86 -127 -44 -43 -10 54 99 -105
-27 -109 -21 112 90 -64 27 -96
-121 -94 89 -77 41 -88 -103 -127
42 -117 -79 -38 127 -60 127 84
-44 -85 -14 83 -35 -76 -106 90
42 59 104 -108 -90 -117 82 120
127 -83 -127 -127 127 40 94 -127
101 -127 -112 127 127 -14 -6 127
-60 -127 127 -127 127 -127 -119 -119
127 -97 -127 -127 -120 -127 -70 127
28 -111 127 127 -68 -127 -96 90
60 127 127 -116 -112 -127 126 127
-52 31 -61 -84 -118 -22 31 -37
127 -20 -77 36 56 -70 -25 -43
00000000: d5ea f9ef 07d9 b1bd e5cd 0841 22b9 72d6
00000010: 8fad 25f9 feba 91b1 dd84 c0ed 470f 5f1a
00000020: 81a7 f936 1330 814e b3f2 6894 fedd a96b
00000030: 4b0b e4e3 3981 81af 3db4 8d6c 25ae ff3e
00000040: cc91 3b07 0a90 81ba fb81 87d9 ca15 c836
00000050: 1d81 4054 0d49 a47f 8106 7c81 02e9 815e
00000060: e02b 06fb c094 c6ee 57f8 8126 08b9 9cf5
00000070: 81e7 1b0c f0b6 dde8 f5e2 c7f4 f712 e809
00000080: 6baa 461f 0e24 fc10 b203 07b1 ef05 c90f
00000090: aa81 d4d5 f636 6397 e593 eb70 5ac0 1ba0
000000a0: 87a2 59b3 29a8 9981 2a8b b1da 7fc4 7f54
000000b0: d4ab f253 ddb4 965a 2a3b 6894 a68b 5278
000000c0: 7fad 8181 7f28 5e81 6581 907f 7ff2 fa7f
000000d0: c481 7f81 7f81 8989 7f9f 8181 8881 ba7f
000000e0: 1c91 7f7f bc81 a05a 3c7f 7f8c 9081 7e7f
000000f0: cc1f c3ac 8aea 1fdb 7fec b324 38ba e7d5

model_1/block_1_expand/Conv2D i1 [48, 1, 1, 8]
14 -127 51 -47 31 -16 -51 20
74 63 -18 -90 6 -16 -77 127
27 8 -48 127 52 122 51 89
76 71 -80 127 -89 -4 -6 11
-33 -102 76 8 6 34 -48 -127
21 4 -34 38 -2 -27 42 127
59 -22 -127 -86 104 21 54 -31
127 14 20 -23 26 -11 89 -60
19 -93 17 95 0 22 -17 -127
109 -127 17 -1 -13 13 -123 87
-127 -30 -112 21 -12 8 -108 54
-21 -40 -8 -101 -127 -35 45 -18
15 8 -35 70 -72 -21 58 127
0 0 0 0 0 0 0 0
-5 -35 -7 8 43 127 46 39
37 6 21 -127 63 41 -56 68
0 0 0 0 0 0 0 0
12 22 127 24 -30 -9 31 28
94 -127 31 35 -8 20 -125 -2
-127 -14 26 75 -63 -55 -101 74
35 36 -40 122 -22 -127 -5 60
55 24 127 7 -16 -11 69 9
-81 -19 -127 4 7 9 -99 3
-104 127 -15 -24 8 -15 127 -81
5 -57 -48 87 -12 -64 100 127
15 41 33 28 127 121 -75 -50
-82 -33 -127 -1 5 12 -86 2
1 -24 -30 10 -43 127 68 46
6 -22 -18 38 27 127 49 61
90 25 127 3 -18 -16 88 -3
-79 127 -24 -25 12 -6 98 -49
-41 -100 -18 4 29 -71 127 112
00000000: 0e81 33d1 1ff0 cd14 4a3f eea6 06f0 b37f
00000010: 1b08 d07f 347a 3359 4c47 b07f a7fc fa0b
00000020: df9a 4c08 0622 d081 1504 de26 fee5 2a7f
00000030: 3bea 81aa 6815 36e1 7f0e 14e9 1af5 59c4
00000040: 13a3 115f 0016 ef81 6d81 11ff f30d 8557
00000050: 81e2 9015 f408 9436 ebd8 f89b 81dd 2dee
00000060: 0f08 dd46 b8eb 3a7f 0000 0000 0000 0000
00000070: fbdd f908 2b7f 2e27 2506 1581 3f29 c844
00000080: 0000 0000 0000 0000 0c16 7f18 e2f7 1f1c
00000090: 5e81 1f23 f814 83fe 81f2 1a4b c1c9 9b4a
000000a0: 2324 d87a ea81 fb3c 3718 7f07 f0f5 4509
000000b0: afed 8104 0709 9d03 987f f1e8 08f1 7faf
000000c0: 05c7 d057 f4c0 647f 0f29 211c 7f79 b5ce
000000d0: aedf 81ff 050c aa02 01e8 e20a d57f 442e
000000e0: 06ea ee26 1b7f 313d 5a19 7f03 eef0 58fd
000000f0: b17f e8e7 0cfa 62cf d79c ee04 1db9 7f70

model_1/expanded_conv_project/Conv2D i1 [8, 1, 1, 16]
0 -24 -1 -3 125 2 -2 2
0 -127 -89 -3 0 122 -2 0
0 -27 0 86 73 13 22 6
0 -7 127 -41 0 28 -13 0
0 -1 0 -10 -59 5 9 3
0 2 -19 0 0 127 -9 0
0 -10 -23 -127 77 24 68 15
-1 59 1 37 0 0 18 0
0 52 -26 37 -58 29 127 10
1 -64 16 -10 0 -9 16 0
0 -16 -10 0 -24 -24 -12 17
1 8 -4 -45 0 -6 127 0
0 19 -5 1 50 -22 -27 -9
2 -106 113 64 0 127 59 0
0 15 -18 127 9 -3 19 7
-1 71 -52 78 0 -6 51 0
00000000: 00e8 fffd 7d02 fe02 0081 a7fd 007a fe00
00000010: 00e5 0056 490d 1606 00f9 7fd7 001c f300
00000020: 00ff 00f6 c505 0903 0002 ed00 007f f700
00000030: 00f6 e981 4d18 440f ff3b 0125 0000 1200
00000040: 0034 e625 c61d 7f0a 01c0 10f6 00f7 1000
00000050: 00f0 f600 e8e8 f411 0108 fcd3 00fa 7f00
00000060: 0013 fb01 32ea e5f7 0296 7140 007f 3b00
00000070: 000f ee7f 09fd 1307 ff47 cc4e 00fa 3300

model_1/expanded_conv_depthwise_BN/FusedBatchNormV3;model_1/expanded_conv_depthwise/depthwise;model_1/block_5_project/Conv2D i1 [1, 3, 3, 16]
-108 19 -82 -126 39 -67 80 -76
-89 -3 -8 29 -127 5 54 -73
51 25 -127 127 127 -127 127 -127
-84 127 -127 52 -105 5 127 -25
24 -24 90 -2 -72 67 -95 77
-94 -27 4 -16 61 1 -102 -29
-127 127 -22 13 -44 16 -29 14
-28 0 3 -110 -49 8 -30 -14
-78 -41 -57 -15 -7 -26 8 -28
-108 -89 21 -12 -104 -127 1 23
14 1 64 2 3 34 -25 33
-127 6 -2 1 -21 12 -4 43
-115 -72 68 2 -6 39 -39 52
-76 0 0 5 40 2 -27 23
23 -4 31 -2 -27 40 -34 20
-125 -13 0 84 -58 0 -29 -111
21 -7 19 0 4 14 9 22
-115 4 -1 -127 107 3 17 -127
00000000: 9413 ae82 27bd 50b4 a7fd f81d 8105 36b7
00000010: 3319 817f 7f81 7f81 ac7f 8134 9705 7fe7
00000020: 18e8 5afe b843 a14d a2e5 04f0 3d01 9ae3
00000030: 817f ea0d d410 e30e e400 0392 cf08 e2f2
00000040: b2d7 c7f1 f9e6 08e4 94a7 15f4 9881 0117
00000050: 0e01 4002 0322 e721 8106 fe01 eb0c fc2b
00000060: 8db8 4402 fa27 d934 b400 0005 2802 e517
00000070: 17fc 1ffe e528 de14 83f3 0054 c600 e391
00000080: 15f9 1300 040e 0916 8d04 ff81 6b03 1181

model_1/Conv1/Conv2D i1 [16, 3, 3, 3]
0 0 0 0 0 0 0 0
0 0 0 0 0 0 0 0
0 0 0 0 0 0 0 0
0 0 0 42 -6 26 -9 -25
11 -127 -116 -68 -1 -8 -5 -25
-1 -10 -3 -34 1 -8 12 -6
-9 2 -7 34 -22 8 29 -5
-8 77 115 -1 45 -36 11 9
12 -3 70 127 -30 24 -2 -5
49 -68 19 73 -47 -23 37 -53
15 5 35 2 30 93 18 -1
3 -6 18 37 3 63 127 23
-14 -19 2 3 3 1 25 28
6 -2 -5 2 48 82 -3 22
85 -6 -20 3 -6 55 100 57
40 127 37 30 49 -18 59 77
34 46 117 9 -29 15 12 10
4 -118 -4 -2 -105 -8 25 -30
5 -43 -127 -3 -48 -117 -4 10
-26 -3 7 -19 0 -5 -14 -1
10 -14 23 -64 32 44 -89 37
7 -22 7 35 -96 59 62 -127
70 6 -29 15 20 -35 12 14
-44 25 -13 7 -1 -30 19 6
-103 -33 6 -21 27 6 -15 -6
3 -127 -88 -5 -7 -3 7 -26
30 -7 -16 10 0 -23 24 -3
105 114 111 97 106 106 105 111
111 109 116 113 101 109 107 108
114 113 121 127 123 115 122 119
118 123 120 -23 -6 8 -16 -9
-3 6 5 -8 98 115 -8 76
00000000: 0000 0000 0000 0000 0000 0000 0000 0000
00000010: 0000 0000 0000 0000 0000 002a fa1a f7e7
00000020: 0b81 8cbc fff8 fbe7 fff6 fdde 01f8 0cfa
00000030: f702 f922 ea08 1dfb f84d 73ff 2ddc 0b09
00000040: 0cfd 467f e218 fefb 31bc 1349 d1e9 25cb
00000050: 0f05 2302 1e5d 12ff 03fa 1225 033f 7f17
00000060: f2ed 0203 0301 191c 06fe fb02 3052 fd16
00000070: 55fa ec03 fa37 6439 287f 251e 31ee 3b4d
00000080: 222e 7509 e30f 0c0a 048a fcfe 97f8 19e2
00000090: 05d5 81fd d08b fc0a e6fd 07ed 00fb f2ff
000000a0: 0af2 17c0 202c a725 07ea 0723 a03b 3e81
000000b0: 4606 e30f 14dd 0c0e d419 f307 ffe2 1306
000000c0: 99df 06eb 1b06 f1fa 0381 a8fb f9fd 07e6
000000d0: 1ef9 f00a 00e9 18fd 6972 6f61 6a6a 696f
000000e0: 6f6d 7471 656d 6b6c 7271 797f 7b73 7a77
000000f0: 767b 78e9 fa08 f0f7 fd06 05f8 6273 f84c
